homework_7/pr3/model.pth (torch, 869632 bytes, 4 tensors)

weight f4 [32, 1, 3, 3]
000000 5e 24 27 be 98 47 2f be 2b 7c 76 be c8 15 7c bd
       -0.16322467 -0.17117155 -0.24070804 -0.06154421
000010 72 31 2e 3e 3c 9d f5 3d 60 c4 fa bd 6d 88 8a 3e
       0.1701105 0.11992881 -0.12244487 0.2705721
000020 d0 46 b9 3d 63 52 9f 3e f8 44 1e 3d be f0 4d 3e
       0.090467095 0.31117544 0.038639992 0.20111367
000030 82 a6 60 3e 00 b2 4b bd 73 4c a7 3e 70 e8 fb 3d
       0.21938518 -0.0497303 0.32675514 0.12300193
000040 b6 ef 61 be 58 56 2a be 80 6e c4 bd 9b 46 84 be
       -0.22064099 -0.166345 -0.09591389 -0.25835118
000050 32 d2 2a 3e e4 5d b6 3d bc 2b f7 3d 20 07 c8 bd
       0.16681746 0.08904627 0.120688885 -0.09766984
000060 f3 03 04 be c0 04 ba 3d e8 96 aa be d1 bf 99 3e
       -0.12892132 0.09082937 -0.33318257 0.30029157
000070 41 4d 82 3e b8 f8 29 bd d0 78 c5 3d 38 5b 7c 3d
       0.25449565 -0.041496962 0.09642184 0.06161043
000080 f6 28 8a be 62 04 a4 be 0c 9d 91 3d d4 bf a0 be
       -0.26984376 -0.32034594 0.071100324 -0.31396353
000090 46 dc 55 be 24 99 e5 3d d8 d1 05 be 18 2e 17 bd
       -0.20884809 0.1121085 -0.1306833 -0.036909193
0000a0 96 01 56 3e 00 97 d6 3b 40 76 11 bd 44 14 80 be
       0.20899042 0.0065487623 -0.035513163 -0.2501546
0000b0 86 35 b3 bd c6 93 1b 3e 92 9f 5d 3e fb 4d 44 be
       -0.08750443 0.1519309 0.21642902 -0.19170372
0000c0 6a 9f 88 be eb 2c 97 3e c8 dd 62 3d 10 29 8b 3c
       -0.26684123 0.29526457 0.05538729 0.016987354
0000d0 a4 2d be 3d 5b 41 8a 3e 50 b6 88 be eb cf 24 be
       0.09286049 0.27002987 -0.26701593 -0.1609494
0000e0 08 c6 11 3e 72 c1 9e be b8 86 1d 3e 14 af c2 3d
       0.14235699 -0.31006962 0.15383422 0.0950605
0000f0 f3 3a 74 be c9 1b 9b 3e 3e 51 93 be 66 5c ed bd
       -0.23850612 0.30294636 -0.2877292 -0.11589889
000100 a0 19 28 be de 90 57 be fe af 7a 3e 92 7d 60 3e
       -0.16416025 -0.21051356 0.24481198 0.21922901
000110 a2 43 4d 3e 26 ad 35 3e 74 5f f4 3d e0 b4 35 3c
       0.20045331 0.17741832 0.11932269 0.011090487
000120 34 71 fe 3d 68 20 70 bd 2e 40 02 be 3d e5 99 3e
       0.124239355 -0.058624655 -0.12719795 0.30057707
000130 70 82 d2 bd 16 77 6c 3e c4 dd 9b 3d 00 0d ab 3a
       -0.10278785 0.23092303 0.07610658 0.0013050139
000140 43 80 2f be 23 cf 67 be 31 04 88 3e 12 0b 91 be
       -0.17138772 -0.2263761 0.26565698 -0.28328758
000150 37 55 a6 3e dc 16 ce bd 40 ff a1 bc f7 c7 8e be
       0.3248689 -0.10062954 -0.019775033 -0.27886936
000160 d6 7f cd bd 70 d2 c3 bd a7 f4 a5 3e 20 ba 99 bd
       -0.100341484 -0.09561622 0.32413217 -0.07506204
000170 20 69 77 3d 80 97 1a bd 01 c3 9a 3e a3 d8 9e 3e
       0.06040299 -0.037742138 0.302269 0.31024656
000180 1e 44 00 3e a2 fa a5 be 7e 90 89 be eb d9 9c be
       0.12525985 -0.3241778 -0.2686805 -0.30635008
000190 56 1d 95 be 70 8c bc 3c 34 94 c3 3d e0 7a ff bd
       -0.29123944 0.023016185 0.09549752 -0.124746084
0001a0 16 1e c7 bd f8 71 21 bd 8e 61 22 be 00 33 a0 bd
       -0.09722535 -0.03941533 -0.15857527 -0.078222275
0001b0 ee 59 36 be 76 19 67 be 38 b8 4a be 09 97 99 3e
       -0.17807743 -0.22568306 -0.19796836 0.29998043
0001c0 b0 07 2d be fa 79 7a 3e 35 4c 91 3e 8d 96 a7 3e
       -0.16897464 0.24460593 0.28378454 0.3273205
0001d0 52 63 6b 3e 40 a9 c9 3b d0 4e 7a be 50 72 a6 3d
       0.22987106 0.0061542094 -0.24444127 0.08127272
0001e0 f0 19 97 3c 4c 61 95 bd 36 18 fe bd 70 55 8d bd
       0.018444985 -0.072939485 -0.124069616 -0.069010615
0001f0 31 a0 80 3e ee 3b 67 be 8d 4b 9d 3e 05 b8 a9 3e
       0.25122216 -0.22581455 0.30721703 0.33148208
000200 20 f9 da bd 30 c5 9e bd dc bd fd bd 60 b3 3b be
       -0.10692048 -0.07752454 -0.123897284 -0.18330145
000210 b6 13 5a be 16 5c c6 bd ba d4 7c 3e e4 c0 9f bd
       -0.21296582 -0.09685533 0.24690524 -0.07800463
000220 50 95 1b be 10 07 4c be bd 54 86 3e b9 62 a3 3e
       -0.15193677 -0.19924569 0.26236525 0.31911257
000230 40 f4 78 be e0 45 c3 3d 73 2d 97 3e 1f 50 a9 3e
       -0.24311924 0.09534812 0.29526863 0.3306894
000240 70 6a 6a be 73 ac 90 be de 38 0a be 72 c9 5a 3e
       -0.22892165 -0.28256568 -0.13498256 0.21365908
000250 76 d1 a4 be c5 0f 84 3e 8c f8 90 be a8 d7 62 3d
       -0.32191056 0.2579328 -0.28314626 0.055381447
000260 02 06 52 3e ec cb b5 bd e8 69 5f 3d ee 46 18 3e
       0.20510104 -0.08876786 0.05454436 0.14870808
000270 50 78 5e be 0a 24 9c be fc cb f5 3d a8 4f 72 be
       -0.21725583 -0.30496246 0.120017976 -0.23663199
000280 a0 e4 37 bd a0 46 77 be f6 02 45 be 64 74 95 3d
       -0.04489577 -0.24148035 -0.19239411 0.072975904
000290 90 4c 34 be b6 96 f1 bd 7e c1 50 be 50 71 9a bd
       -0.17607331 -0.11796324 -0.20386311 -0.07541144
0002a0 0a b1 9c be e8 b0 2d be 6a b9 4f 3e 64 54 9d 3d
       -0.3060382 -0.16962016 0.20285574 0.07682112
0002b0 2e fa a0 be 9b 69 58 be 48 d7 7d bd ef 11 a6 3e
       -0.31440872 -0.21134035 -0.061972886 0.32435557
0002c0 8c 2f a8 bd c0 83 ba bb 0e 2c 5b be b0 bd d1 3d
       -0.08212194 -0.0056919754 -0.21403524 0.10241258
0002d0 8c 21 96 be 2f 4c 93 3e f8 0a 30 bd a0 20 1d 3c
       -0.2932247 0.2876906 -0.04297921 0.009590298
0002e0 30 d6 a4 bd 64 3a 81 be f2 19 66 3e 56 ec 21 3e
       -0.080486655 -0.2523986 0.22470835 0.15812811
0002f0 5a 73 60 3e a9 4f aa 3e 63 09 14 be 00 96 0f 3d
       0.21919003 0.332639 -0.14456706 0.03505516
000300 ec 86 c6 bd 40 ec 1b 3d bb 34 90 be 7c bc 94 3d
       -0.09693703 0.038067102 -0.2816523 0.07262513
000310 e5 b4 a6 3e a0 cc 9d 3d 2a 06 32 3e f8 c7 39 3d
       0.32559887 0.07705045 0.17385164 0.04535672
000320 76 6e 32 3e 75 d2 87 3e 9e c6 91 be cc 03 82 3d
       0.1742495 0.26527753 -0.28471845 0.063483804
000330 9b f5 79 be 18 0c 12 3d 45 3b 8f 3e bc 6e 98 3d
       -0.24410097 0.035656065 0.27974907 0.07442996
000340 59 6f 95 3e d3 41 53 be c0 8c 07 3d 58 44 04 be
       0.29186514 -0.20630579 0.033093214 -0.12916696
000350 f0 96 90 3d 93 9b 3f be a0 7f 5b bc e6 b3 15 be
       0.07060039 -0.1871169 -0.013397127 -0.14619407
000360 5c b3 85 be 06 2c a1 be 40 0b 84 bd a0 9a 1e bd
       -0.26113403 -0.314789 -0.06447458 -0.03872168
000370 e0 8a 6c 3c 1a 55 50 3e c8 34 7e bd a0 82 fb 3d
       0.014437407 0.20344964 -0.062062055 0.12280774
000380 bb 30 94 3e e0 b3 0f be a6 95 00 be 3c a8 a5 be
       0.28943428 -0.1403346 -0.12557086 -0.32354915
000390 db 59 99 3e 3d bf 99 3e bb ad 69 be 68 77 07 bd
       0.29951367 0.30028716 -0.22820179 -0.03307286
0003a0 ca 78 a6 be e8 55 2f 3d 32 10 73 3e 67 03 9d be
       -0.3251403 0.042806536 0.23736647 -0.30666658
0003b0 f3 21 a9 3e 1b 36 11 be ab 2f 38 be a8 2d 1e bd
       0.33033714 -0.14180796 -0.17986934 -0.03861776
0003c0 5c 2f 9c bd ee c7 6a 3e 71 7f 9f 3e 5f 04 80 be
       -0.076262206 0.2292783 0.31151918 -0.25003335
0003d0 3e 84 3e 3e 04 0e 9d be 40 66 67 be 2a 27 5d 3e
       0.18605134 -0.30674756 -0.22597599 0.21596971
0003e0 08 5a 0f be 82 a8 4a 3e 70 50 8c bc 4a 66 4f 3e
       -0.13999188 0.19790843 -0.0171282 0.20253864
0003f0 a0 5a 41 bc f4 f4 9f be 70 7b fe bd f0 49 42 be
       -0.011801392 -0.31241572 -0.124258876 -0.18973517

bias f4 [32]
000000 7c e2 86 3d 3d d5 8b 3e 02 e4 7c 3e 68 62 12 3e
       0.06586167 0.27311125 0.24696353 0.14295352
000010 a8 20 78 bd 40 63 c8 bd c3 74 89 3e bb 09 60 be
       -0.06057802 -0.097845554 0.26846895 -0.21878712
000020 f3 30 8e 3e 00 d3 8d ba d0 56 e6 3c 66 26 e9 bd
       0.2777172 -0.0010820329 0.028117567 -0.11384277
000030 24 62 9e 3d 46 ad e9 bd 45 07 a1 3e ba 36 9b be
       0.077335626 -0.114100024 0.3145086 -0.3031519
000040 40 00 87 bb f0 85 b8 bd 88 3e 41 3d a0 0f 7f be
       -0.004119903 -0.090099216 0.047178775 -0.24908304
000050 db 6c 9d 3e 9b f4 03 be 80 54 11 bd ca ca 7d 3e
       0.30747113 -0.12886278 -0.035480976 0.24784389
000060 08 68 4d 3d 8b aa 4c be 13 13 1e be 60 24 fb 3d
       0.05014804 -0.19986932 -0.15436964 0.12262797
000070 37 c5 9d be 00 03 f0 3c 3a c7 95 be 36 6c 7c be
       -0.30814525 0.029298306 -0.2925356 -0.24650654

weight f4 [10, 21632]
000000 00 04 e2 3a 30 3f 4c 3b 91 79 93 bb 18 c8 c2 3b
       0.0017243624 0.0031165592 -0.004500576 0.005944263
000010 c0 66 dd 39 9b c0 c0 bb 20 35 45 3a 8c dd 26 3b
       0.0004222896 -0.0058823354 0.000752287 0.0025461642
000020 00 aa 5f b8 c8 d7 4b 3a 46 94 2b bb 84 05 83 bb
       -5.3325668e-05 0.00077759894 -0.0026180907 -0.0039984602
000030 9c f6 1e 3b 97 47 62 bb 60 7a 20 3a 48 ef 61 3a
       0.0024255877 -0.0034527534 0.0006121751 0.00086187245
000040 0c 5a 9b bb 60 41 4b 3b 09 a7 81 bb 80 dc 2c 3b
       -0.004740959 0.0031014308 -0.0039566797 0.0026376545
000050 e0 85 3b ba 0c 67 b9 ba 00 d5 c8 b8 b0 94 bf 39
       -0.0007153433 -0.001414509 -9.5764175e-05 0.0003654114
000060 b8 65 f2 3a ea d5 9d 3b d0 9b 2d bb 40 0b 75 bb
       0.0018493449 0.0048167603 -0.0026490577 -0.0037390739
000070 d8 cb 04 ba 30 03 77 bb 48 a4 80 ba fc 60 b8 bb
       -0.00050657755 -0.003769111 -0.0009814585 -0.005626796
000080 74 59 42 3b f7 bd c3 bb a0 65 c4 3b c8 8d 9d bb
       0.002965537 -0.0059735733 0.00599356 -0.0048081614
000090 76 70 d7 3b b2 9c 85 bb 40 6b af 3b 88 e1 db 3b
       0.0065746857 -0.0040775174 0.0053533614 0.006710235
0000a0 0c 6a 38 3b e8 bf 99 3a 3c 98 84 3b fd b8 ca bb
       0.002813938 0.0011730166 0.004046468 -0.006186603
0000b0 6e e9 0f bb f2 40 b9 3b 08 b3 18 3b 00 eb aa bb
       -0.0021959203 0.005653494 0.002330007 -0.0052160025
0000c0 7c a0 de ba e8 ce 07 bb 30 03 84 3a e0 55 aa 3a
       -0.0016985084 -0.002072269 0.0010071751 0.0012995563
0000d0 a2 4d da 3b ce 27 a2 3b 44 07 4e 3b f8 f3 12 bb
       0.0066620866 0.0049485927 0.0031437436 -0.0022423249
0000e0 fc 8a 1f 3b 88 7e c6 3b 86 17 40 bb 28 fd be 3b
       0.0024344316 0.006057564 -0.0029310896 0.0058285184
0000f0 20 6e d1 3b 64 c5 32 3b 10 ed d5 3a de 05 90 3b
       0.0063913018 0.0027278299 0.001632126 0.0043952307
000100 0d c1 d8 bb cc 0a 28 3b e7 c8 d7 bb f2 5a 92 bb
       -0.0066148103 0.00256412 -0.0065852287 -0.004466408
000110 64 89 c6 3b 2e 26 c4 3b 88 a6 46 3a 10 da 99 3b
       0.0060588587 0.0059859967 0.00075779157 0.0046951845
000120 42 50 83 3b a0 3b a5 3b 54 78 8a 3b c0 b4 de 3b
       0.00400737 0.0050425082 0.00422577 0.0067964494
000130 b4 5b d2 bb dd 65 47 bb 8e f2 d5 bb 5e 55 80 3b
       -0.0064196233 -0.0030425705 -0.006529159 0.0039164266
000140 ac b1 05 bb 1a e4 c0 3b f7 71 40 bb b8 cf 84 3b
       -0.002040009 0.005886567 -0.0029364803 0.0040530823
000150 24 66 f8 ba 08 e4 32 3b fa 7e 8a 3b 80 08 46 3b
       -0.0018951339 0.0027296562 0.0042265626 0.0030217469
000160 25 00 5a bb a0 4c 7a 3b e0 8e ce b9 9a 2d 07 bb
       -0.0033264246 0.0038192645 -0.00039397832 -0.0020626546
000170 1e 9b 33 bb 12 fd bd bb cc f8 7f 3b b4 a4 58 3b
       -0.002740569 -0.0057979906 0.0039058207 0.0033057155
000180 80 15 be b8 96 de dc 3b 20 74 79 3b cc 62 69 3b
       -9.063911e-05 0.0067404015 0.00380636 0.0035611866
000190 5d 08 d7 bb c0 f9 70 bb 70 89 2c 3a 40 6c aa b8
       -0.0065622763 -0.0036769956 0.0006581759 -8.126395e-05
0001a0 48 93 30 3b 9d e0 c0 bb 68 28 b8 ba 94 b1 d8 3b
       0.0026943255 -0.005886151 -0.0014050128 0.006612966
0001b0 80 d3 01 39 c0 01 ab bb 74 37 9f 3b f7 46 d7 bb
       0.00012381189 -0.0052187145 0.0048589054 -0.006569739
0001c0 4e 13 d2 bb ea f1 cf 3b 78 40 95 bb 40 02 7f 3b
       -0.0064109927 0.006345977 -0.0045548044 0.0038911253
0001d0 b6 b3 c8 bb 6c 2d 0a bb c6 14 9a 3b b0 c9 8f b9
       -0.006124939 -0.0021084202 0.0047021834 -0.00027425354
0001e0 81 9a b2 bb 20 94 34 3b 42 9a 8e 3b c0 e9 cf 3a
       -0.005450547 0.002755411 0.004351885 0.001586251
0001f0 5c d9 83 bb 22 b0 81 bb 82 a7 9a bb 6c 3b b3 ba
       -0.004023714 -0.0039577642 -0.0047196755 -0.0013674325
000200 1c 75 33 3b 9c 02 b8 ba aa 13 83 3b 88 3d b0 3a
       0.0027383035 -0.0014038864 0.004000147 0.0013446072
000210 b8 ff 9a 3b 02 31 96 bb f4 95 c2 ba 20 f6 d4 3b
       0.004730191 -0.004583479 -0.0014845715 0.006499067
000220 a8 39 a1 3a c5 8a c0 bb 49 df ad bb d0 63 30 bb
       0.0012300508 -0.0058759176 -0.0053061587 -0.0026914962
000230 26 1b 1a bb f8 36 a4 bb aa f2 20 bb fc 22 44 3b
       -0.0023514717 -0.0050114356 -0.0024558702 0.002992808
000240 ec 72 4c 3b bb 9a 5a bb 14 9e 73 3b d0 8c 13 3b
       0.0031196428 -0.0033356387 0.003717308 0.002251435
000250 a0 7e 4d 3a 8b 10 db bb 08 85 36 3a 00 55 ff b8
       0.0007838998 -0.0066853217 0.0006962572 -0.0001217518
000260 e2 95 9f 3b d0 4b 16 3a e0 e2 92 b9 40 6a 2f 3b
       0.0048701623 0.0005733343 -0.00028016325 0.002676621
000270 84 df cf bb 1c d0 c9 3b 20 c8 f5 39 a0 cb 82 bb
       -0.006343784 0.006158842 0.00046879146 -0.003991559
000280 aa 98 86 3b 68 c9 10 3b 4b b0 8f bb 90 92 dd bb
       0.0041075544 0.0022092704 -0.0043850294 -0.0067618564
000290 58 93 c3 3b 00 34 23 b8 fc 87 52 3b 15 48 3e bb
       0.0059684925 -3.8910657e-05 0.003212451 -0.0029034663
0002a0 eb 04 60 bb 78 44 d0 3a 0a ba 1e bb 78 b8 0b bb
       -0.003418262 0.0015889546 -0.0024219775 -0.0021319669
0002b0 6c 93 7e bb 9c dc 0f 3b 00 3f 91 b8 30 bc 30 ba
       -0.0038845195 0.0021951562 -6.9258735e-05 -0.00067419093
0002c0 58 74 fd ba 74 09 d2 bb 48 01 b6 ba 96 36 da 3b
       -0.0019337041 -0.0064098183 -0.001388588 0.006659339
0002d0 36 2c cf bb 90 37 b6 bb b7 33 ad bb 98 3c db ba
       -0.006322409 -0.005560823 -0.005285706 -0.0016726432
0002e0 70 47 4c ba 00 49 0b 3b c7 72 d8 bb 7c 6a ff ba
       -0.00077926274 0.0021253228 -0.0066054794 -0.0019486691
0002f0 c0 97 ee b8 37 82 be bb 7e 92 b5 3b 96 ad ab 3b
       -0.0001137699 -0.0058138627 0.005541145 0.005239199
000300 5e 21 ca bb 10 14 26 3b 58 f0 5f 3a 20 9b 54 bb
       -0.0061685285 0.0025341548 0.0008542589 -0.0032441095
000310 b4 1b f4 ba fa c3 97 3b d0 98 96 3b 1d 2a bc bb
       -0.0018623979 0.0046315165 0.0045958534 -0.005742325
000320 e8 3d 6f 3b 9b fe be bb 08 48 97 3a 2c 13 d7 3b
       0.0036505405 -0.005828691 0.0011541853 0.0065635648
000330 48 4e 7b 3b b6 c9 10 bb f0 2c b0 3b d8 74 49 3a
       0.003834622 -0.0022092885 0.0053764507 0.00076849526
000340 8c 8c 84 bb 16 9a 2a bb 0a 26 b0 3b c8 36 39 3a
       -0.004045075 -0.0026031784 0.0053756284 0.0007065353
000350 94 5a 26 3b b4 86 80 bb f8 7a aa 3b d6 8a dd 3b
       0.0025383579 -0.003922308 0.0052026473 0.0067609353
000360 0c e8 ac ba d0 a1 02 ba 60 25 c3 3a b0 1a af ba
       -0.0013191714 -0.00049832184 0.0014888458 -0.0013359394
000370 84 38 44 3b 30 e4 04 bb 48 66 b3 ba 34 09 d3 3b
       0.0029940913 -0.0020277612 -0.0013687098 0.006440306
000380 08 48 29 bb ce 53 91 3b 74 19 8f 3b 62 e7 0d bb
       -0.0025830287 0.004435039 0.004367048 -0.0021652807
000390 08 38 23 bb 64 b3 38 3b b2 8a 6b bb 08 46 97 3b
       -0.0024905223 0.0028183097 -0.0035940823 0.0046165027
0003a0 72 b7 cf 3b 2e c1 c1 3b ec d7 db bb 63 af c8 bb
       0.006339007 0.0059129214 -0.0067090895 -0.0061244234
0003b0 40 35 d3 3b 50 af dd b9 3a 12 b2 3b f0 f9 7e bb
       0.006445557 -0.00042283023 0.0054343017 -0.0038906299
0003c0 88 a4 1a 3b 0c bf ef ba b5 44 5e bb c0 20 f2 38
       0.0023596603 -0.0018291189 -0.0033915464 0.000115455594
0003d0 b0 26 33 3a 60 ce 60 3a 60 02 0c ba f6 3a 96 bb
       0.0006834073 0.0008575674 -0.000534093 -0.0045846654
0003e0 98 18 57 3a 44 c2 2a bb 52 30 21 bb 90 bd c8 39
       0.0008205264 -0.0026055733 -0.0024595452 0.00038288208
0003f0 38 50 34 bb 1e b6 ca bb 6c c2 02 3b 4e ff a5 bb
       -0.0027513634 -0.006186261 0.001995231 -0.005065835

bias f4 [10]
000000 e0 65 fc b9 18 25 ad 3a 4c 66 03 3b 9c 36 1b 3b
       -0.00048141088 0.0013209907 0.0020049987 0.0023683673
000010 40 1b 29 39 38 79 51 3b e4 e8 14 bb 56 1d d5 3b
       0.00016127247 0.003196312 -0.0022721821 0.0065037413
000020 07 59 44 bb 6c 3a 0b 3b
       -0.002996029 0.002124454
